…
class sk_nlp.nlp_feature_extract.feature.KeyWordExtract

   Bases: "object"

   å…³é”®è¯æŠ½å–ç®—æ³•ï¼ŒåŸºäºtf-idf

   get_tf_idf(sentence_list, model_file)

      åŠ è½½tf-idfæ¨¡å‹ï¼Œè¿”å›sentence_listå¯¹åº”çš„ç‰¹å¾å’Œæ¨¡å‹

      Parameters:
         * **sentence_list** -- å¥å­åˆ—è¡¨ï¼ˆåˆ†è¯åï¼‰

         * **model_file** -- tf-idfæ¨¡å‹æ–‡ä»¶

      Returns:
         tf_idf_model(æ¨¡å‹å®ä¾‹), tfidf_feature(sentence_listå¯¹åº”çš„tf-
         idfç‰¹å¾)

      >>> tf_idf_model, tfidf_feature = kwe.get_tf_idf(['æ°ä¼¦ æ˜¯ å°æ¹¾ æ­Œæ‰‹', 'ä¸ƒé‡Œé¦™ æ˜¯ æ°ä¼¦ åˆ›ä½œ'], file_conf.tf_idf_file_path)
      >>> print(tfidf_feature)
        (0, 4)        0.6316672017376245
        (0, 3)        0.4494364165239821
        (0, 2)        0.6316672017376245
        (1, 3)        0.4494364165239821
        (1, 1)        0.6316672017376245
        (1, 0)        0.6316672017376245

   get_topk_keywords(data_list, topk=200)

      å¾—åˆ°topkä¸ªå…³é”®è¯

      Parameters:
         * **data_list** -- å¥å­åˆ—è¡¨ï¼ˆåˆ†è¯åï¼‰

         * **topk** -- tf-idfé‡è¦åº¦æ’åºåå‰topk

      Returns:
         keywords

      >>> keywords = kwe.get_topk_keywords(['æ°ä¼¦ æ˜¯ å°æ¹¾ æ­Œæ‰‹', 'ä¸ƒé‡Œé¦™ æ˜¯ æ°ä¼¦ åˆ›ä½œ'], topk=1)
      >>> print(keywords)
      [['æ­Œæ‰‹']['åˆ›ä½œ']]
…
